…
pe": "1", "metadata": {}, "hash": "fb17442ca562d5e47a642749fba423726c36a75555a92debb20acd2d5db8879a", "class_name": "RelatedNodeInfo"}}, "text": "In the code below, we set weights_only=True to limit the\r\nfunctions executed during unpickling to only those necessary for\r\nloading weights. Using weights_only=True is considered\r\na best practice when loading weights.\r\nmodel = models.vgg16() # we do not specify ``weights``, i.e. create untrained model\r\nmodel.load_state_dict(torch.load('model_weights.pth', weights_only=True))\r\nmodel.eval()\r\n\r\nVGG(\r\n  (features): Sequential(\r\n    (0): Conv2d(3, 64, kernel_size=(3, 3), stride=(1, 1), padding=(1, 1))\r\n    (1): ReLU(inplace=True)\r\n    (2): Conv2d(64, 64, kernel_size=(3, 3), stride=(1, 1), padding=(1, 1))\r\n    (3): ReLU(inplace=True)\r\n    (4): MaxPool2d(kernel_size=2, stride=2, padding=0, dilation=1, ceil_mode=False)\r\n    (5): Conv2d(64, 128, kernel_size=(3, 3), stride=(1, 1), padding=(1, 1))\r\n    (6): ReLU(inplace=True)\r\n    (7): Conv2d(128, 128, kernel_size=(3, 3), stride=(1, 1), padding=(1, 1))\r\n    (8): ReLU(inplace=True)\r\n    (9): MaxPool2d(kernel_size=2, stride=2, padding=0, dilation=1, ceil_mode=False)\r\n    (10): Conv2d(128, 256, kernel_size=(3, 3), stride=(1, 1), padding=(1, 1))\r\n    (11): ReLU(inplace=True)\r\n    (12): Conv2d(256, 256, kernel_size=(3, 3), stride=(1, 1), padding=(1, 1))\r\n    (13): ReLU(inplace=True)\r\n    (14): Conv2d(256, 256, kernel_size=(3, 3), stride=(1, 1), padding=(1, 1))\r\n    (15): ReLU(inplace=True)\r\n    (16): MaxPool2d(kernel_size=2, stride=2, padding=0, dilation=1, ceil_mode=False)\r\n    (17): Conv2d(256, 512, kernel_size=(3, 3), stride=(1, 1), padding=(1, 1))\r\n    (18): ReLU(inplace=True)\r\n    (19): Conv2d(512, 512, kernel_size=(3, 3), stride=(1, 1), padding=(1, 1))\r\n    (20): ReLU(inplace=True)\r\n    (21): Conv2d(512, 512, kernel_size=(3, 3), stride=(1, 1), padding=(1, 1))\r\n    (22): ReLU(inplace=True)\r\n    (23): MaxPool2d(kernel_size=2, stride=2, padding=0, dilation=1, ceil_mode=False)\r\n    (24): Conv2d(512, 512, kernel_size=(3, 3), stride=(1, 1), padding=(1, 1))\r\n    (25): ReLU(inplace=True)\r\n    (26): Conv2d(512, 512, kernel_size=(3, 3), stride=(1, 1), padding=(1, 1))\r\n    (27): ReLU(inplace=True)\r\n    (28): Conv2d(512, 512, kernel_size=(3, 3), stride=(1, 1), padding=(1, 1))\r\n    (29): ReLU(inplace=True)\r\n    (30): MaxPool2d(kernel_size=2, stride=2, padding=0, dilation=1, ceil_mode=False)\r\n  )\r\n  (avgpool): AdaptiveAvgPool2d(output_size=(7, 7))\r\n  (classifier): Sequential(\r\n    (0): Linear(in_features=25088, out_features=4096, bias=True)\r\n    (1): ReLU(inplace=True)\r\n    (2): Dropout(p=0.5, inplace=False)\r\n    (3): Linear(in_features=4096, out_features=4096, bias=True)\r\n    (4): ReLU(inplace=True)\r\n    (5): Dropout(p=0.5, inplace=False)\r\n    (6): Linear(in_features=4096, out_features=1000, bias=True)\r\n  )\r\n)\r\n\r\nNote\r\nbe sure to call model.eval() method before inferencing to set the dropout and batch normalization layers to evaluation mode. Failing to do this will yield inconsistent inference results.", "mimetype": "text/plain", "start_char_idx": 73977, "end_char_idx": 76858, "text_template": "{metadata_str}\n\n{content}", "metadata_temp
…
